…
    "answer": "## VGG16\n\nIn [17]:\n\n```py\nfrom keras.applications.vgg16 import VGG16\n\n```\n\nIn [18]:\n\n```py\nvgg16 = VGG16(weights = 'imagenet', input_shape = (32, 32, 3), include_top = False)\nvgg16.summary()\n\n```\n\n```\nDownloading data from https://github.com/fchollet/deep-learning-models/releases/download/v0.1/vgg16_weights_tf_dim_ordering_tf_kernels_notop.h5\n58892288/58889256 [==============================] - 1s 0us/step\n_________________________________________________________________\nLayer (type)                 Output Shape              Param #\n=================================================================\ninput_1 (InputLayer)         (None, 32, 32, 3)         0\n_________________________________________________________________\nblock1_conv1 (Conv2D)        (None, 32, 32, 64)        1792\n_________________________________________________________________\nblock1_conv2 (Conv2D)        (None, 32, 32, 64)        36928\n_________________________________________________________________\nblock1_pool (MaxPooling2D)   (None, 16, 16, 64)        0\n_________________________________________________________________\nblock2_conv1 (Conv2D)        (None, 16, 16, 128)       73856\n_________________________________________________________________\nblock2_conv2 (Conv2D)        (None, 16, 16, 128)       147584\n_________________________________________________________________\nblock2_pool (MaxPooling2D)   (None, 8, 8, 128)         0\n_________________________________________________________________\nblock3_conv1 (Conv2D)        (None, 8, 8, 256)         295168\n_________________________________________________________________\nblock3_conv2 (Conv2D)        (None, 8, 8, 256)         590080\n_________________________________________________________________\nblock3_conv3 (Conv2D)        (None, 8, 8, 256)         590080\n_________________________________________________________________\nblock3_pool (MaxPooling2D)   (None, 4, 4, 256)         0\n_________________________________________________________________\nblock4_conv1 (Conv2D)        (None, 4, 4, 512)         1180160\n_________________________________________________________________\nblock4_conv2 (Conv2D)        (None, 4, 4, 512)         2359808\n_________________________________________________________________\nblock4_conv3 (Conv2D)        (None, 4, 4, 512)         2359808\n_________________________________________________________________\nblock4_pool (MaxPooling2D)   (None, 2, 2, 512)         0\n_________________________________________________________________\nblock5_conv1 (Conv2D)        (None, 2, 2, 512)         2359808\n_________________________________________________________________\nblock5_conv2 (Conv2D)        (None, 2, 2, 512)         2359808\n_________________________________________________________________\nblock5_conv3 (Conv2D)        (None, 2, 2, 512)         2359808\n_________________________________________________________________\nblock5_pool (MaxPooling2D)   (None, 1, 1, 512)         0\n=================================================================\nTotal params: 14,714,688\nTrainable params: 14,714,688\nNon-trainable params: 0\n_________________________________________________________________\n\n```\n\nIn [19]:\n\n```py\nfor layer in vgg16.layers:\n    layer.trainable = False\n\n```\n\nIn [20]:\n\n```py\nvgg_model = Sequential()\nvgg_model.add(vgg16)\nvgg_model.add(Flatten())\nvgg_model.add(Dense(256, activation = 'relu'))\nvgg_model.add(BatchNormalization())\nvgg_model.add(Dropout(0.5))\nvgg_model.add(Dense(128, activation = 'relu'))\nvgg_model.add(BatchNormalization())\nvgg_model.add(Dropout(0.5))\nvgg_model.add(Dense(1, activation = 'sigmoid'))\n\nvgg_model.summary()\n\n```\n\n```\n_________________________________________________________________\nLayer (type)                 Output Shape              Param #\n=================================================================\nvgg16 (Model)                (None, 1, 1, 512)         14714688\n_________________________________________________________________\nflatten_6 (Flatten)          (None, 512)               0\n_________________________________________________________________\ndense_16 (Dense)             (None, 256)               131328\n_________________________________________________________________\nbatch_normalization_41 (Batc (None, 256)               1024\n_________________________________________________________________\ndropout_26 (Dropout)         (None, 256)               0\n_________________________________________________________________\ndense_17 (Dense)             (None, 128)               32896\n_________________________________________________________________\nbatch_normalization_42 (Batc (None, 128)               512\n_________________________________________________________________\ndropout_27 (Dropout)         (None, 128)               0\n_________________________________________________________________\ndense_18 (Dense)             (None, 1)                 129\n=================================================================\nTotal params: 14,880,577\nTrainable params: 165,121\nNon-trainable params: 14,715,456\n_________________________________________________________________\n\n```\n\nIn [21]:\n\n```py\n#compile the model\nvgg_model.compile(loss = 'binary_crossentropy', optimizer = optim, metrics = ['accuracy'])\n\n```\n\nIn [22]:\n\n```py\n#fit the 
…
s.warn('The output shape of `ResNet50(include_top=False)` '\n\n```\n\n```\nDownloading data from https://github.com/fchollet/deep-learning-models/releases/download/v0.2/resnet50_weights_tf_dim_ordering_tf_kernels_notop.h5\n94658560/94653016 [==============================] - 1s 0us/step\n__________________________________________________________________________________________________\nLayer (type)                    Output Shape         Param #     Connected to\n==================================================================================================\ninput_2 (InputLayer)            (None, 32, 32, 3)    0\n__________________________________________________________________________________________________\nconv1_pad (ZeroPadding2D)       (None, 38, 38, 3)    0           input_2[0][0]\n__________________________________________________________________________________________________\nconv1 (Conv2D)                  (None, 16, 16, 64)   9472        conv1_pad[0][0]\n__________________________________________________________________________________________________\nbn_conv1 (BatchNormalization)   (None, 16, 16, 64)   256         conv1[0][0]\n__________________________________________________________________________________________________\nactivation_31 (Activation)      (None, 16, 16, 64)   0           bn_conv1[0][0]\n__________________________________________________________________________________________________\npool1_pad (ZeroPadding2D)       (None, 18, 18, 64)   0           activation_31[0][0]\n__________________________________________________________________________________________________\nmax_pooling2d_16 (MaxPooling2D) (None, 8, 8, 64)     0           pool1_pad[0][0]\n__________________________________________________________________________________________________\nres2a_branch2a (Conv2D)         (None, 8, 8, 64)     4160        max_pooling2d_16[0][0]\n__________________________________________________________________________________________________\nbn2a_branch2a (BatchNormalizati (None, 8, 8, 64)     256         res2a_branch2a[0][0]\n__________________________________________________________________________________________________\nactivation_32 (Activation)      (None, 8, 8, 64)     0           bn2a_branch2a[0][0]\n__________________________________________________________________________________________________\nres2a_branch2b (Conv2D)         (None, 8, 8, 64)     36928       activation_32[0][0]\n__________________________________________________________________________________________________\nbn2a_branch2b (BatchNormalizati (None, 8, 8, 64)     256         res2a_branch2b[0][0]\n__________________________________________________________________________________________________\nactivation_33 (Activation)      (None, 8, 8, 64)     0           bn2a_branch2b[0][0]\n__________________________________________________________________________________________________\nres2a_branch2c (Conv2D)         (None, 8, 8, 256)    16640       activation_33[0][0]\n__________________________________________________________________________________________________\nres2a_branch1 (Conv2D)          (None, 8, 8, 256)    16640       max_pooling2d_16[0][0]\n__________________________________________________________________________________________________\nbn2a_branch2c (BatchNormalizati (None, 8, 8, 256)    1024        res2a_branch2c[0][0]\n__________________________________________________________________________________________________\nbn2a_branch1 (BatchNormalizatio (None, 8, 8, 256)    1024        res2a_branch1[0][0]\n__________________________________________________________________________________________________\nadd_1 (Add)                     (None, 8, 8, 256)    0           bn2a_branch2c[0][0]\n                                                                 bn2a_branch1[0][0]\n__________________________________________________________________________________________________\nactivation_34 (Activation)      (None, 8, 8, 256)    0           add_1[0][0]\n__________________________________________________________________________________________________\nres2b_branch2a (Conv2D)         (None, 8, 8, 64)     16448       activation_34[0][0]\n__________________________________________________________________________________________________\nbn2b_branch2a (BatchNormalizati (None, 8, 8, 64)     256         res2b_branch2a[0][0]\n__________________________________________________________________________________________________\nactivation_35 (Activation)      (None, 8, 8, 64)     0           bn2b_branch2a[0][0]\n__________________________________________________________________________________________________\nres2b_branch2b (Conv2D)         (None, 8, 8, 64)     36928       activation_35[0][0]\n__________________________________________________________________________________________________\nbn2b_branch2b (BatchNormalizati (None, 8, 8, 64)     256         res2b_branch2b[0][0]\n__________________________________________________________________________________________________\nactivation_36 (Activation)      (None, 8, 8, 64)     0           bn2b_branch2b[0][0]\n__________________________________________________________________________________________________\nres2b_branch2c (Conv2D)         (None, 8, 8, 256)    16640       activation_36[0][0]\n__________________________________________________________________________________________________\nbn2b_branch2c (BatchNormalizati (None, 8, 8, 256)    1024        res2b_branch2c[0][0]\n__________________________________________________________________________________________________\nadd_2 (Add)                     (None, 8, 8, 256)    0           bn2b_branch2c[0][0]\n                                                                 activation_34[0][0]\n__________________________________________________________________________________________________\nactivation_37 (Activation)      (None, 8, 8, 256)    0           add_2[0][0]\n__________________________________________________________________________________________________\nres2c_branch2a (Conv2D)         (None, 8, 8, 64)     16448       activation_37[0][0]\n__________________________________________________________________________________________________\nbn2c_branch2a (BatchNormalizati (None, 8, 8, 64)     256         res2c_branch2a[0][0]\n__________________________________________________________________________________________________\nactivation_38 (Activation)      (None, 8, 8, 64)     0           bn2c_branch2a[0][0]\n__________________________________________________________________________________________________\nres2c_branch2b (Conv2D)         (None, 8, 8, 64)     36928       activation_38[0][0]\n__________________________________________________________________________________________________\nbn2c_branch2b (BatchNormalizati (None, 8, 8, 64)     256         res2c_branch2b[0][0]\n__________________________________________________________________________________________________\nactivation_39 (Activation)      (None, 8, 8, 64)     0           bn2c_branch2b[0][0]\n__________________________________________________________________________________________________\nres2c_branch2c (Conv2D)         (None, 8, 8, 256)    16640       activation_39[0][0]\n__________________________________________________________________________________________________\nbn2c_branch2c (BatchNormalizati (None, 8, 8, 256)    1024        res2c_branch2c[0][0]\n__________________________________________________________________________________________________\nadd_3 (Add)                     (None, 8, 8, 256)    0           bn2c_branch2c[0][0]\n                                                                 activation_37[0][0]\n__________________________________________________________________________________________________\nactivation_40 (Activation)      (None, 8, 8, 256)    0           add_3[0][0]\n__________________________________________________________________________________________________\nres3a_branch2a (Conv2D)         (None, 4, 4, 128)    32896       activation_40[0][0]\n__________________________________________________________________________________________________\nbn3a_branch2a (BatchNormalizati (None, 4, 4, 128)    512         res3a_branch2a[0][0]\n__________________________________________________________________________________________________\nactivation_41 (Activation)      (None, 4, 4, 128)    0           bn3a_branch2a[0][0]\n__________________________________________________________________________________________________\nres3a_branch2b (Conv2D)         (None, 4, 4, 128)    147584      activation_41[0][0]\n__________________________________________________________________________________________________\nbn3a_branch2b (BatchNormalizati (None, 4, 4, 128)    512         res3a_branch2b[0][0]\n__________________________________________________________________________________________________\nactivation_42 (Activation)      (None, 4, 4, 128)    0           bn3a_branch2b[0][0]\n__________________________________________________________________________________________________\nres3a_branch2c (Conv2D)         (None, 4, 4, 512)    66048       activation_42[0][0]\n__________________________________________________________________________________________________\nres3a_branch1 (Conv2D)          (None, 4, 4, 512)    131584      activation_40[0][0]\n__________________________________________________________________________________________________\nbn3a_branch2c (BatchNormalizati (None, 4, 4, 512)    2048        res3a_branch2c[0][0]\n__________________________________________________________________________________________________\nbn3a_branch1 (BatchNormalizatio (None, 4, 4, 512)    2048        res3a_branch1[0][0]\n__________________________________________________________________________________________________\nadd_4 (Add)                     (None, 4, 4, 512)    0           bn3a_branch2c[0][0]\n                                                                 bn3a_branch1[0][0]\n__________________________________________________________________________________________________\nactivation_43 (Activation)      (None, 4, 4, 512)    0           add_4[0][0]\n__________________________________________________________________________________________________\nres3b_branch2a (Conv2D)         (None, 4, 4, 128)    65664       activation_43[0][0]\n__________________________________________________________________________________________________\nbn3b_branch2a (BatchNormalizati (None, 4, 4, 128)    512         res3b_branch2a[0][0]\n__________________________________________________________________________________________________\nactivation_44 (Activation)      (None, 4, 4, 128)    0           bn3b_branch2a[0][0]\n__________________________________________________________________________________________________\nres3b_branch2b (Conv2D)         (None, 4, 4, 128)    147584      activation_44[0][0]\n__________________________________________________________________________________________________\nbn3b_branch2b (BatchNormalizati (None, 4, 4, 128)    512         res3b_branch2b[0][0]\n__________________________________________________________________________________________________\nactivation_45 (Activation)      (None, 4, 4, 128)    0           bn3b_branch2b[0][0]\n__________________________________________________________________________________________________\nres3b_branch2c (Conv2D)         (None, 4, 4, 512)    66048       activation_45[0][0]\n__________________________________________________________________________________________________\nbn3b_branch2c (BatchNormalizati (None, 4, 4, 512)    2048        res3b_branch2c[0][0]\n__________________________________________________________________________________________________\nadd_5 (Add)                     (None, 4, 4, 512)    0           bn3b_branch2c[0][0]\n                                                                 activation_43[0][0]\n__________________________________________________________________________________________________\nactivation_46 (Activation)      (None, 4, 4, 512)    0           add_5[0][0]\n__________________________________________________________________________________________________\nres3c_branch2a (Conv2D)         (None, 4, 4, 128)    65664       activation_46[0][0]\n__________________________________________________________________________________________________\nbn3c_branch2a (BatchNormalizati (None, 4, 4, 128)    512         res3c_branch2a[0][0]\n__________________________________________________________________________________________________\nactivation_47 (Activation)      (None, 4, 4, 128)    0           bn3c_branch2a[0][0]\n__________________________________________________________________________________________________\nres3c_branch2b (Conv2D)         (None, 4, 4, 128)    147584      activation_47[0][0]\n__________________________________________________________________________________________________\nbn3c_branch2b (BatchNormalizati (None, 4, 4, 128)    512         res3c_branch2b[0][0]\n__________________________________________________________________________________________________\nactivation_48 (Activation)      (None, 4, 4, 128)    0           bn3c_branch2b[0][0]\n__________________________________________________________________________________________________\nres3c_branch2c (Conv2D)         (None, 4, 4, 512)    66048       activation_48[0][0]\n__________________________________________________________________________________________________\nbn3c_branch2c (BatchNormalizati (None, 4, 4, 512)    2048        res3c_branch2c[0][0]\n__________________________________________________________________________________________________\nadd_6 (Add)                     (None, 4, 4, 512)    0           bn3c_branch2c[0][0]\n                                                                 activation_46[0][0]\n__________________________________________________________________________________________________\nactivation_49 (Activation)      (None, 4, 4, 512)    0           add_6[0][0]\n__________________________________________________________________________________________________\nres3d_branch2a (Conv2D)         (None, 4, 4, 128)    65664       activation_49[0][0]\n__________________________________________________________________________________________________\nbn3d_branch2a (BatchNormalizati (None, 4, 4, 128)    512         res3d_branch2a[0][0]\n__________________________________________________________________________________________________\nactivation_50 (Activation)      (None, 4, 4, 128)    0           bn3d_branch2a[0][0]\n__________________________________________________________________________________________________\nres3d_branch2b (Conv2D)         (None, 4, 4, 128)    147584      activation_50[0][0]\n__________________________________________________________________________________________________\nbn3d_branch2b (BatchNormalizati (None, 4, 4, 128)    512         res3d_branch2b[0][0]\n__________________________________________________________________________________________________\nactivation_51 (Activation)      (None, 4, 4, 128)    0           bn3d_branch2b[0][0]\n__________________________________________________________________________________________________\nres3d_branch2c (Conv2D)         (None, 4, 4, 512)    66048       activation_51[0][0]\n__________________________________________________________________________________________________\nbn3d_branch2c (BatchNormalizati (None, 4, 4, 512)    2048        res3d_branch2c[0][0]\n__________________________________________________________________________________________________\nadd_7 (Add)                     (None, 4, 4, 512)    0           bn3d_branch2c[0][0]\n                                                                 activation_49[0][0]\n__________________________________________________________________________________________________\nactivation_52 (Activation)      (None, 4, 4, 512)    0           add_7[0][0]\n__________________________________________________________________________________________________\nres4a_branch2a (Conv2D)         (None, 2, 2, 256)    131328      activation_52[0][0]\n__________________________________________________________________________________________________\nbn4a_branch2a (BatchNormalizati (None, 2, 2, 256)    1024        res4a_branch2a[0][0]\n__________________________________________________________________________________________________\nactivation_53 (Activation)      (None, 2, 2, 256)    0           bn4a_branch2a[0][0]\n__________________________________________________________________________________________________\nres4a_branch2b (Conv2D)         (None, 2, 2, 256)    590080      activation_53[0][0]\n__________________________________________________________________________________________________\nbn4a_branch2b (BatchNormalizati (None, 2, 2, 256)    1024        res4a_branch2b[0][0]\n__________________________________________________________________________________________________\nactivation_54 (Activation)      (None, 2, 2, 256)    0           bn4a_branch2b[0][0]\n__________________________________________________________________________________________________\nres4a_branch2c (Conv2D)         (None, 2, 2, 1024)   263168      activation_54[0][0]\n__________________________________________________________________________________________________\nres4a_branch1 (Conv2D)          (None, 2, 2, 1024)   525312      activation_52[0][0]\n__________________________________________________________________________________________________\nbn4a_branch2c (BatchNormalizati (None, 2, 2, 1024)   4096        res4a_branch2c[0][0]\n__________________________________________________________________________________________________\nbn4a_branch1 (BatchNormalizatio (None, 2, 2, 1024)   4096        res4a_branch1[0][0]\n__________________________________________________________________________________________________\nadd_8 (Add)                     (None, 2, 2, 1024)   0           bn4a_branch2c[0][0]\n                                                                 bn4a_branch1[0][0]\n__________________________________________________________________________________________________\nactivation_55 (Activation)      (None, 2, 2, 1024)   0           add_8[0][0]\n__________________________________________________________________________________________________\nres4b_branch2a (Conv2D)         (None, 2, 2, 256)    262400      activation_55[0][0]\n__________________________________________________________________________________________________\nbn4b_branch2a (BatchNormalizati (None, 2, 2, 256)    1024        res4b_branch2a[0][0]\n__________________________________________________________________________________________________\nactivation_56 (Activation)      (None, 2, 2, 256)    0           bn4b_branch2a[0][0]\n__________________________________________________________________________________________________\nres4b_branch2b (Conv2D)         (None, 2, 2, 256)    590080      activation_56[0][0]\n__________________________________________________________________________________________________\nbn4b_branch2b (BatchNormalizati (None, 2, 2, 256)    1024        res4b_branch2b[0][0]\n__________________________________________________________________________________________________\nactivation_57 (Activation)      (None, 2, 2, 256)    0           bn4b_branch2b[0][0]\n__________________________________________________________________________________________________\nres4b_branch2c (Conv2D)         (None, 2, 2, 1024)   263168      activation_57[0][0]\n__________________________________________________________________________________________________\nbn4b_branch2c (BatchNormalizati (None, 2, 2, 1024)   4096        res4b_branch2c[0][0]\n__________________________________________________________________________________________________\nadd_9 (Add)                     (None, 2, 2, 1024)   0           bn4b_branch2c[0][0]\n                                                                 activation_55[0][0]\n__________________________________________________________________________________________________\nactivation_58 (Activation)      (None, 2, 2, 1024)   0           add_9[0][0]\n__________________________________________________________________________________________________\nres4c_branch2a (Conv2D)         (None, 2, 2, 256)    262400      activation_58[0][0]\n__________________________________________________________________________________________________\nbn4c_branch2a (BatchNormalizati (None, 2, 2, 256)    1024        res4c_branch2a[0][0]\n__________________________________________________________________________________________________\nactivation_59 (Activation)      (None, 2, 2, 256)    0           bn4c_branch2a[0][0]\n__________________________________________________________________________________________________\nres4c_branch2b (Conv2D)         (None, 2, 2, 256)    590080      activation_59[0][0]\n__________________________________________________________________________________________________\nbn4c_branch2b (BatchNormalizati (None, 2, 2, 256)    1024        res4c_branch2b[0][0]\n__________________________________________________________________________________________________\nactivation_60 (Activation)      (None, 2, 2, 256)    0           bn4c_branch2b[0][0]\n__________________________________________________________________________________________________\nres4c_branch2c (Conv2D)         (None, 2, 2, 1024)   263168      activation_60[0][0]\n__________________________________________________________________________________________________\nbn4c_branch2c (BatchNormalizati (None, 2, 2, 1024)   4096        res4c_branch2c[0][0]\n__________________________________________________________________________________________________\nadd_10 (Add)                    (None, 2, 2, 1024)   0           bn4c_branch2c[0][0]\n                                                                 activation_58[0][0]\n__________________________________________________________________________________________________\nactivation_61 (Activation)      (None, 2, 2, 1024)   0           add_10[0][0]\n__________________________________________________________________________________________________\nres4d_branch2a (Conv2D)         (None, 2, 2, 256)    262400      activation_61[0][0]\n__________________________________________________________________________________________________\nbn4d_branch2a (BatchNormalizati (None, 2, 2, 256)    1024        res4d_branch2a[0][0]\n__________________________________________________________________________________________________\nactivation_62 (Activation)      (None, 2, 2, 256)    0           bn4d_branch2a[0][0]\n__________________________________________________________________________________________________\nres4d_branch2b (Conv2D)         (None, 2, 2, 256)    590080      activation_62[0][0]\n__________________________________________________________________________________________________\nbn4d_branch2b (BatchNormalizati (None, 2, 2, 256)    1024        res4d_branch2b[0][0]\n__________________________________________________________________________________________________\nactivation_63 (Activation)      (None, 2, 2, 256)    0           bn4d_branch2b[0][0]\n__________________________________________________________________________________________________\nres4d_branch2c (Conv2D)         (None, 2, 2, 1024)   263168      activation_63[0][0]\n__________________________________________________________________________________________________\nbn4d_branch2c (BatchNormalizati (None, 2, 2, 1024)   4096        res4d_branch2c[0][0]\n__________________________________________________________________________________________________\nadd_11 (Add)                    (None, 2, 2, 1024)   0           bn4d_branch2c[0][0]\n                                                                 activation_61[0][0]\n__________________________________________________________________________________________________\nactivation_64 (Activation)      (None, 2, 2, 1024)   0           add_11[0][0]\n__________________________________________________________________________________________________\nres4e_branch2a (Conv2D)         (None, 2, 2, 256)    262400      activation_64[0][0]\n__________________________________________________________________________________________________\nbn4e_branch2a (BatchNormalizati (None, 2, 2, 256)    1024        res4e_branch2a[0][0]\n__________________________________________________________________________________________________\nactivation_65 (Activation)      (None, 2, 2, 256)    0           bn4e_branch2a[0][0]\n__________________________________________________________________________________________________\nres4e_branch2b (Conv2D)         (None, 2, 2, 256)    590080      activation_65[0][0]\n__________________________________________________________________________________________________\nbn4e_branch2b (BatchNormalizati (None, 2, 2, 256)    1024        res4e_branch2b[0][0]\n__________________________________________________________________________________________________\nactivation_66 (Activation)      (None, 2, 2, 256)    0           bn4e_branch2b[0][0]\n__________________________________________________________________________________________________\nres4e_branch2c (Conv2D)         (None, 2, 2, 1024)   263168      activation_66[0][0]\n__________________________________________________________________________________________________\nbn4e_branch2c (BatchNormalizati (None, 2, 2, 1024)   4096        res4e_branch2c[0][0]\n__________________________________________________________________________________________________\nadd_12 (Add)                    (None, 2, 2, 1024)   0           bn4e_branch2c[0][0]\n                                                                 activation_64[0][0]\n__________________________________________________________________________________________________\nactivation_67 (Activation)      (None, 2, 2, 1024)   0           add_12[0][0]\n__________________________________________________________________________________________________\nres4f_branch2a (Conv2D)         (None, 2, 2, 256)    262400      activation_67[0][0]\n__________________________________________________________________________________________________\nbn4f_branch2a (BatchNormalizati (None, 2, 2, 256)    1024        res4f_branch2a[0][0]\n__________________________________________________________________________________________________\nactivation_68 (Activation)      (None, 2, 2, 256)    0           bn4f_branch2a[0][0]\n__________________________________________________________________________________________________\nres4f_branch2b (Conv2D)         (None, 2, 2, 256)    590080      activation_68[0][0]\n__________________________________________________________________________________________________\nbn4f_branch2b (BatchNormalizati (None, 2, 2, 256)    1024        res4f_branch2b[0][0]\n__________________________________________________________________________________________________\nactivation_69 (Activation)      (None, 2, 2, 256)    0           bn4f_branch2b[0][0]\n__________________________________________________________________________________________________\nres4f_branch2c (Conv2D)         (None, 2, 2, 1024)   263168      activation_69[0][0]\n__________________________________________________________________________________________________\nbn4f_branch2c (BatchNormalizati (None, 2, 2, 1024)   4096        res4f_branch2c[0][0]\n__________________________________________________________________________________________________\nadd_13 (Add)                    (None, 2, 2, 1024)   0           bn4f_branch2c[0][0]\n                                                                 activation_67[0][0]\n__________________________________________________________________________________________________\nactivation_70 (Activation)      (None, 2, 2, 1024)   0           add_13[0][0]\n__________________________________________________________________________________________________\nres5a_branch2a (Conv2D)         (None, 1, 1, 512)    524800      activation_70[0][0]\n__________________________________________________________________________________________________\nbn5a_branch2a (BatchNormalizati (None, 1, 1, 512)    2048        res5a_branch2a[0][0]\n__________________________________________________________________________________________________\nactivation_71 (Activation)      (None, 1, 1, 512)    0           bn5a_branch2a[0][0]\n__________________________________________________________________________________________________\nres5a_branch2b (Conv2D)         (None, 1, 1, 512)    2359808     activation_71[0][0]\n__________________________________________________________________________________________________\nbn5a_branch2b (BatchNormalizati (None, 1, 1, 512)    2048        res5a_branch2b[0][0]\n__________________________________________________________________________________________________\nactivation_72 (Activation)      (None, 1, 1, 512)    0           bn5a_branch2b[0][0]\n__________________________________________________________________________________________________\nres5a_branch2c (Conv2D)         (None, 1, 1, 2048)   1050624     activation_72[0][0]\n__________________________________________________________________________________________________\nres5a_branch1 (Conv2D)          (None, 1, 1, 2048)   2099200     activation_70[0][0]\n__________________________________________________________________________________________________\nbn5a_branch2c (BatchNormalizati (None, 1, 1, 2048)   8192        res5a_branch2c[0][0]\n__________________________________________________________________________________________________\nbn5a_branch1 (BatchNormalizatio (None, 1, 1, 2048)   8192        res5a_branch1[0][0]\n__________________________________________________________________________________________________\nadd_14 (Add)                    (None, 1, 1, 2048)   0           bn5a_branch2c[0][0]\n                                                                 bn5a_branch1[0][0]\n__________________________________________________________________________________________________\nactivation_73 (Activation)      (None, 1, 1, 2048)   0           add_14[0][0]\n__________________________________________________________________________________________________\nres5b_branch2a (Conv2D)         (None, 1, 1, 512)    1049088     activation_73[0][0]\n__________________________________________________________________________________________________\nbn5b_branch2a (BatchNormalizati (None, 1, 1, 512)    2048        res5b_branch2a[0][0]\n__________________________________________________________________________________________________\nactivation_74 (Activation)      (None, 1, 1, 512)    0           bn5b_branch2a[0][0]\n__________________________________________________________________________________________________\nres5b_branch2b (Conv2D)         (None, 1, 1, 512)    2359808     activation_74[0][0]\n__________________________________________________________________________________________________\nbn5b_branch2b (BatchNormalizati (None, 1, 1, 512)    2048        res5b_branch2b[0][0]\n__________________________________________________________________________________________________\nactivation_75 (Activation)      (None, 1, 1, 512)    0           bn5b_branch2b[0][0]\n__________________________________________________________________________________________________\nres5b_branch2c (Conv2D)         (None, 1, 1, 2048)   1050624     activation_75[0][0]\n__________________________________________________________________________________________________\nbn5b_branch2c (BatchNormalizati (None, 1, 1, 2048)   8192        res5b_branch2c[0][0]\n__________________________________________________________________________________________________\nadd_15 (Add)                    (None, 1, 1, 2048)   0           bn5b_branch2c[0][0]\n                                                                 activation_73[0][0]\n__________________________________________________________________________________________________\nactivation_76 (Activation)      (None, 1, 1, 2048)   0           add_15[0][0]\n__________________________________________________________________________________________________\nres5c_branch2a (Conv2D)         (None, 1, 1, 512)    1049088     activation_76[0][0]\n__________________________________________________________________________________________________\nbn5c_branch2a (BatchNormalizati (None, 1, 1, 512)    2048        res5c_branch2a[0][0]\n__________________________________________________________________________________________________\nactivation_77 (Activation)      (None, 1, 1, 512)    0           bn5c_branch2a[0][0]\n__________________________________________________________________________________________________\nres5c_branch2b (Conv2D)         (None, 1, 1, 512)    2359808     activation_77[0][0]\n__________________________________________________________________________________________________\nbn5c_branch2b (BatchNormalizati (None, 1, 1, 512)    2048        res5c_branch2b[0][0]\n__________________________________________________________________________________________________\nactivation_78 (Activation)      (None, 1, 1, 512)    0           bn5c_branch2b[0][0]\n__________________________________________________________________________________________________\nres5c_branch2c (Conv2D)         (None, 1, 1, 2048)   1050624     activation_78[0][0]\n__________________________________________________________________________________________________\nbn5c_branch2c (BatchNormalizati (None, 1, 1, 2048)   8192        res5c_branch2c[0][0]\n__________________________________________________________________________________________________\nadd_16 (Add)                    (None, 1, 1, 2048)   0           bn5c_branch2c[0][0]\n                                                                 activation_76[0][0]\n__________________________________________________________________________________________________\nactivation_79 (Activation)      (None, 1, 1, 2048)   0           add_16[0][0]\n==================================================================================================\nTotal params: 23,587,712\nTrainable params: 23,534,592\nNon-trainable params: 53,120\n__________________________________________________________________________________________________\n\n```\n\nIn [27]:\n\n```py\nfor layer in resnet.layers:\n    layer.trainable = False\n\n`
…
net)\nresnet_model.add(Flatten())\nresnet_model.add(Dense(256, activation = 'relu'))\nresnet_model.add(BatchNormalization())\nresnet_model.add(Dropout(0.5))\nresnet_model.add(Dense(128, activation = 'relu'))\nresnet_model.add(BatchNormalization())\nresnet_model.add(Dropout(0.5))\nresnet_model.add(Dense(1, activation = 'sigmoid'))\n\nresnet_model.summary()\n\n```\n\n```\n_________________________________________________________________\nLayer (type)                 Output Shape              Param #\n=================================================================\nresnet50 (Model)             (None, 1, 1, 2048)        23587712\n_________________________________________________________________\nflatten_7 (Flatten)          (None, 2048)              0\n_________________________________________________________________\ndense_19 (Dense)             (None, 256)               524544\n_________________________________________________________________\nbatch_normalization_43 (Batc (None, 256)               1024\n_________________________________________________________________\ndropout_28 (Dropout)         (None, 256)               0\n_________________________________________________________________\ndense_20 (Dense)             (None, 128)               32896\n_________________________________________________________________\nbatch_normalization_44 (Batc (None, 128)               512\n_________________________________________________________________\ndropout_29 (Dropout)         (None, 128)               0\n_________________________________________________________________\ndense_21 (Dense)             (None, 1)                 129\n=================================================================\nTotal params: 24,146,817\nTrainable params: 558,337\nNon-trainable params: 23,588,480\n_________________________________________________________________\n\n```\n\nIn [29]:\n\n```py\n#compile the model\nresnet_model.compile(loss = 'binary_crossentropy', optimizer = optim, metrics = ['accuracy'])\n\n```\n\nOutputIn [30]:\n\n```py\n
…
 703.67it/s]\n```\n\n```\nNPY files not found!\n\n```\n\n```\n100%|██████████| 17500/17500 [00:25\u003c00:00, 692.41it/s]\n\n```\n\nIn [7]:\n\n```py\ntrainer = TrainWithKeras(X_data, Y_data, model_path=\"models/model.h5\", epochs=50, batch_size=1024, lr=0.0002)\nmodel = trainer.make_model()\nmodel = trainer.compile(model)\n\nhistroy = trainer.train(model)\n\n```\n\n```\n_________________________________________________________________\nLayer (type)                 Output Shape              Param #\n=================================================================\nconv2d_1 (Conv2D)            (None, 30, 30, 64)        1792\n_________________________________________________________________\nmax_pooling2d_1 (MaxPooling2 (None, 15, 15, 64)        0\n_________________________________________________________________\nconv2d_2 (Conv2D)            (None, 13, 13, 128)       73856\n_________________________________________________________________\ndropout_1 (Dropout)          (None, 13, 13, 128)       0\n_________________________________________________________________\nbatch_normalization_1 (Batch (None, 13, 13, 128)       512\n_________________________________________________________________\nconv2d_3 (Conv2D)            (None, 11, 11, 256)       295168\n_________________________________________________________________\nmax_pooling2d_2 (MaxPooling2 (None, 5, 5, 256)         0\n_________________________________________________________________\nconv2d_4 (Conv2D)            (None, 3, 3, 512)         1180160\n_________________________________________________________________\ndropout_2 (Dropout)          (None, 3, 3, 512)         0\n_________________________________________________________________\nconv2d_5 (Conv2D)            (None, 1, 1, 1024)        4719616\n_________________________________________________________________\nflatten_1 (Flatten)          (None, 1024)              0\n_________________________________________________________________\ndense_1 (Dense)              (None, 1024)              1049600\n_________________________________________________________________\ndropout_3 (Dropout)          (None, 1024)              0\n_________________________________________________________________\ndense_2 (Dense)              (None, 2)                 2050\n=================================================================\nTotal params: 7,322,754\nTrainable params: 7,322,498\nNon-trainable params: 256\n_________________________________________________________________\nEpoch 1/50\n17500/17500 [==============================] - 5s 291us/step - loss: 0.4455 - acc: 0.7814\nEpoch 2/50\n17500/17500 [==============================] - 2s 88us/step - loss: 
…
acks.EarlyStopping(monitor='val_acc', patience=20, verbose=1, mode='auto', restore_best_weights=True),\n         keras.callbacks.ReduceLROnPlateau(monitor='val_loss', factor=0.1, patience=10, verbose=1, mode='auto')]\nmodel.fit(X_tr,Y_tr,batch_size=64, epochs=80, verbose=1,   validation_split=0.1,callbacks=callback)\n\n```\n\n```\nCurrent train size: (70000, 32, 32, 3)\n_________________________________________________________________\nLayer (type)                 Output Shape              Param #\n=================================================================\nvgg16 (Model)                (None, 1, 1, 512)         14714688\n_________________________________________________________________\nflatten_1 (Flatten)          (None, 512)               0\n_________________________________________________________________\ndense_1 (Dense)              (None, 256)               131328\n_________________________________________________________________\nbatch_normalization_1 (Batch (None, 256)               1024\n_________________________________________________________________\nactivation_1 (Activation)    (None, 256)               0\n_________________________________________________________________\ndropout_1 (Dropout)          (None, 256)               0\n_________________________________________________________________\ndense_2 (Dense)              (None, 256)               65792\n_________________________________________________________________\nbatch_normalization_2 (Batch (None, 256)               1024\n_________________________________________________________________\ndense_3 (Dense)              (None, 16)                4112\n_________________________________________________________________\ndense_4 (Dense)              (None, 1)                 17\n=================================================================\nTotal params: 14,917,985\nTrainable params: 14,916,961\nNon-trainable params: 1,024\n_________________________________________________________________\nTrain on 63000 samples, validate on 7000 samples\nEpoch 1/80\n63000/63000 [==============================] - 33s 519us/step - loss: 0.0982 - acc: 0.9667 - val_loss: 0.1541 - val_a
…
)\n\n```\n\n```\nWARNING:tensorflow:From /opt/conda/lib/python3.6/site-packages/tensorflow/python/framework/op_def_library.py:263: colocate_with (from tensorflow.python.framework.ops) is deprecated and will be removed in a future version.\nInstructions for updating:\nColocations handled automatically by placer.\n\n```\n\nIn [16]:\n\n```py\nmodel.summary()\n\n```\n\n```\n_________________________________________________________________\nLayer (type)                 Output Shape              Param #\n=================================================================\nconv2d_1 (Conv2D)            (None, 28, 28, 64)        4864\n_________________________________________________________________\nbatch_normalization_1 (Batch (None, 28, 28, 64)        256\n_________________________________________________________________\nleaky_re_lu_1 (LeakyReLU)    (None, 28, 28, 64)        0\n_________________________________________________________________\nconv2d_2 (Conv2D)            (None, 24, 24, 64)        102464\n_________________________________________________________________\nbatch_normalization_2 (Batch (None, 24, 24, 64)        256\n_________________________________________________________________\nleaky_re_lu_2 (LeakyReLU)    (None, 24, 24, 64)        0\n_________________________________________________________________\nconv2d_3 (Conv2D)            (None, 20, 20, 128)       204928\n_________________________________________________________________\nbatch_normalization_3 (Batch (None, 20, 20, 128)       512\n_________________________________________________________________\nleaky_re_lu_3 (LeakyReLU)    (None, 20, 20, 128)       0\n_________________________________________________________________\nconv2d_4 (Conv2D)            (None, 16, 16, 128)       409728\n_________________________________________________________________\nbatch_normalization_4 (Batch (None, 16, 16, 128)       512\n_________________________________________________________________\nleaky_re_lu_4 (LeakyReLU)    (None, 16, 16, 128)       0\n_________________________________________________________________\nconv2d_5 (Conv2D)            (None, 14, 14, 256)       295168\n_________________________________________________________________\nbatch_normalization_5 (Batch (None, 14, 14, 256)       1024\n_________________________________________________________________\nleaky_re_lu_5 (LeakyReLU)    (None, 14, 14, 256)       0\n_________________________________________________________________\nconv2d_6 (Conv2D)            (None, 12, 12, 256)       590080\n_________________________________________________________________\nbatch_normalization_6 (Batch (None, 12, 12, 256)       1024\n_________________________________________________________________\nleaky_re_lu_6 (LeakyReLU)    (None, 12, 12, 256)       0\n_________________________________________________________________\nconv2d_7 (Conv2D)            (None, 10, 10, 512)       1180160\n_________________________________________________________________\nbatch_normalization_7 (Batch (None, 10, 10, 512)       2048\n_________________________________________________________________\nleaky_re_lu_7 (LeakyReLU)    (None, 10, 10, 512)       0\n_________________________________________________________________\nflatten_1 (Flatten)          (None, 51200)             0\n_________________________________________________________________\ndense_1 (Dense)              (None, 100)               5120100\n_________________________________________________________________\nbatch_normalization_8 (Batch (None, 100)               400\n_________________________________________________________________\nleaky_re_lu_8 (LeakyReLU)    (None, 100)               0\n_________________________________________________________________\ndense_2 (Dense)              (None, 1)                 101\n=================================================================\nTotal params: 7,913,625\nTrainable params: 7,910,609\nNon-trainable params: 3,016\n_________________________________________________________________\n\n```\n\nIn [17]:\n\n```py\nopt = keras.optimizers.SGD(lr=0.0001, momentum=0.9, nesterov=True)\nmodel.compile(optimizer=opt, loss='binary_crossentropy', metrics=['accuracy'])\n\n```
…
")(out)\nmodel = Model(inputs, out)\nmodel.summary()\n\n```\n\n```\nDownloading data from https://github.com/keras-team/keras-applications/releases/download/densenet/densenet201_weights_tf_dim_ordering_tf_kernels_notop.h5\n74842112/74836368 [==============================] - 2s 0us/step\n__________________________________________________________________________________________________\nLayer (type)                    Output Shape         Param #     Connected to\n==================================================================================================\ninput_1 (InputLayer)            (None, 32, 32, 3)    0\n__________________________________________________________________________________________________\ndensenet201 (Model)             (None, 1, 1, 1920)   18321984    input_1[0][0]\n__________________________________________________________________________________________________\nglobal_max_pooling2d_1 (GlobalM (None, 1920)         0           densenet201[1][0]\n__________________________________________________________________________________________________\nglobal_average_pooling2d_1 (Glo (None, 1920)         0           densenet201[1][0]\n__________________________________________________________________________________________________\nflatten_1 (Flatten)             (None, 1920)         0           densenet201[1][0]\n__________________________________________________________________________________________________\nconcatenate_1 (Concatenate)     (None, 5760)         0           global_max_pooling2d_1[0][0]\n                                                                 global_average_pooling2d_1[0][0]\n                                                                 flatten_1[0][0]\n__________________________________________________________________________________________________\ndropout_1 (Dropout)             (None, 5760)         0           concatenate_1[0][0]\n__________________________________________________________________________________________________\n3_ (Dense)                      (None, 256)          1474816     dropout_1[0][0]\n__________________________________________________________________________________________________\nbatch_normalization_1 (BatchNor (None, 256)          1024        3_[0][0]\n__________________________________________________________________________________________________\nactivation_1 (Activation)       (None, 256)          0           batch_normalization_1[0][0]\n__________________________________________________________________________________________________\n3_2 (Dense)                     (None, 1)            257         activation_1[0][0]\n==================================================================================================\nTotal params: 19,798,081\nTrainable params: 19,568,513\nNon-trainable params: 229,568\n__________________________________________________________________________________________________\n\n```\n\nIn [11]:\n\n```py\nbase_model.Trainable=True\n\nset_trainable=False\nfor la
…
\nfor n_hidden in hidden_units:\n    out = keras.layers.Dense(n_hidden, activation='relu')(out)\n\n# 单一输出：我们的预测评分\nout = keras.layers.Dense(1, activation='linear', name='prediction')(out)\n\nmodel = keras.Model(\n    inputs = [user_id_input, movie_id_input],\n    outputs = out,\n)\nmodel.summary(line_length=88)\n'''\n________________________________________________________________________________________\nLayer (type)                 Output Shape       Param #   Connected to\n========================================================================================\nuser_id (InputLayer)         (None, 1)          0\n________________________________________________________________________________________\nmovie_id (InputLayer)        (None, 1)          0\n________________________________________________________________________________________\nuser_embedding (Embedding)   (None, 1, 8)       1107952   user_id[0][0]\n________________________________________________________________________________________\nmovie_embedding (Embedding)  (None, 1, 8)       213952    movie_id[0][0]\n________________________________________________________________________________________\nconcatenate (Concatenate)    (None, 1, 16)      0         user_embedding[0][0]\n                                                          movie_embedding[0][0]\n________________________________________________________________________________________\nflatten (Flatten)            (None, 16)         0         concatenate[0][0]\n________________________________________________________________________________________\ndense_5 (Dense)              (None, 32)         544       flatten[0][0]\n________________________________________________________________________________________\ndense_6 (Dense)              (None, 4)          132       dense_5[0][0]\n________________________________________________________________________________________\nprediction (Dense)           (None, 1)          5         dense_6[0][0]\n========================================================================================\nTotal params: 1,322,585\nTrainable params: 1,322,585\nNon-trainable params: 0\n________________________________________________________________________________________\n'''\n```\n\n### 训练\n\n我们将编译我们的模型，来最小化平方误差（'MSE'）。 我们还将绝对值误差（'MAE'）作为在训练期间报告的度量标准，因为它更容易解释。\n\n\u003e 需要考虑的事情：我们知道评分只能
…
 = keras.layers.Dot(2)([user_embedded, movie_embedded])\nout = keras.layers.Flatten()(dotted)\n\nmodel = keras.Model(\n    inputs = [user_id_input, movie_id_input],\n    outputs = out,\n)\nmodel.compile(\n    tf.train.AdamOptimizer(0.001),\n    loss='MSE',\n    metrics=['MAE'],\n)\nmodel.summary(line_length=88)\n'''\n________________________________________________________________________________________\nLayer (type)                 Output Shape       Param #   Connected to\n========================================================================================\nuser_id (InputLayer)         (None, 1)          0\n________________________________________________________________________________________\nmovie_id (InputLayer)        (None, 1)          0\n________________________________________________________________________________________\nuser_embedding (Embedding)   (None, 1, 8)       1107952   user_id[0][0]\n________________________________________________________________________________________\nmovie_embedding (Embedding)  (None, 1, 8)       213952    movie_id[0][0]\n________________________________________________________________________________________\ndot (Dot)                    (None, 1, 1)       0         user_embedding[0][0]\n                                                          movie_embedding[0][0]\n________________________________________________________________________________________\nflatten (Flatten)            (None, 1)          0         dot[0][0]\n========================================================================================\nTotal params: 1,321,904\nTrainable params: 1,321,904\nNon-trainable params: 0\n________________________________________________________________________________________\n'''\n```\n\n让我们训练它。\n\n```py\nhistory = model.fit(\n    [df.userId, df.movieId],\n    df.y,\n    batch_size=5000,\n    epochs=20,\n    verbose=0,\n    validation_split=.05,\n);\n```\n\n让我们将这个模型随时间的误差，与我们在上一课中训练的深度神经网络进行比较：\n\n我们新的，更简单的模型（蓝色）看起来非常好。\n\n然而，即使我们的嵌入相当小，两种模型都会产生一些明显的过拟合。 也就是说，训练集上的误差 - 实线 - 明显好于看不见的数据。 我们将在练习中尽快解决这个问题。\n\n### 你的回合\n\n前往[练习笔记本](https://www.kaggle.com/kernels/fork/1598589)，进行矩阵分解的实践练习。",
…
